…
                      validation_split = 0.1,
                      batch_size=100,
                      shuffle=True,
                      callback=[])
DR.fit(X_train, y_train, normalize=True)
# predict the actual label (or class) over a new set of data.
DR_predict = DR.predict(X_test)
# predict the class probabilities for each data point.
DR_predict_proba = DR.predict_proba(X_test)Архитектура моделиМодель генерирует архитектуру автоматически, исходя из количества нейронов в первом полносвязном слое. Например, при использовании number_neurons = 500в первом полносвязном слое и наличием 2-х прогнозируемых классов (0, 1) - нейронная сеть автоматически будет иметь данную архитектуру. Model: "DatRet with number_neurons = 500"
_________________________________________________________________
 Layer (type)                Output Shape              Param #   
=================================================================
 input_1 (InputLayer)        [(None, X_train.shape[0)]      0         
 dense (Dense)               (None, 500)               150500    
 dense_1 (Dense)             (None, 250)               125250    
 dense_2 (Dense)             (None, 125)               31375     
 dense_3 (Dense)             (None, 62)                7812      
 dense_4 (Dense)             (None, 31)                1953      
 dense_5 (Dense)             (None, 15)                480       
 dense_6 (Dense)             (None, 7)                 112       
 dense_7 (Dense)             (None, 3)                 24        
 dense_8 (Dense)             (None, 2)                 8         
                       (2 predictable classes)                               
=================================================================
Total params: 317,514
Trainable params: 317,514
Non-trainable params: 0Сравнение точности с классическими методами машинного обученияDatRetClassifier для задач классификацииЧтобы оценить точность классификатора, мы будем использовать Pima Indians Diabetes Database | Kaggle. Метрика RocAucScore. Буду сравнивать DatRet с RandomForest и CatBoost «из коробки».  Полная версия ноутбука реализована в GitHub.for i in [0.1, 0.2, 0.3, 0.4, 0.5, 0.6]:
…
